data.pth (torch, 32234 bytes, 6 tensors)

l1.weight f4 [8, 608]
0	0x3efce097	0.49390098
1	0x3e2338a4	0.15939575
2	0x40088c45	2.1335614
3	0x3ee769e6	0.45197982
4	0x3fabcf63	1.3422664
5	0x3f3f46c1	0.74717337
6	0xbf95dd54	-1.1708169
7	0x3fa688b6	1.3010471
8	0x3e63f2e7	0.22260629
9	0x3ff2ab13	1.8958458
10	0xbe0f6f9f	-0.14007424
11	0x3e472b65	0.19450147
12	0x3ef1e1c9	0.47242573
13	0x3feae018	1.8349638
14	0x40079cca	2.1189446
15	0x3fa8e52e	1.319494
16	0xbf05c50d	-0.522538
17	0x3f1dc5a9	0.6162973
18	0xbf7714df	-0.9651622
19	0xbdb7c401	-0.08972932
20	0x3f83547d	1.0260159
21	0x3f3f99da	0.74844134
22	0x3fc73e81	1.556595
23	0xbeed2770	-0.4631915
24	0x3f186cb3	0.5954086
25	0x3f2cf9e0	0.6756878
26	0x3f54f47f	0.8318557
27	0x3fd97d4e	1.6991365
28	0x3fa4c009	1.2871104
29	0x3d5e7607	0.05431178
30	0x3e867aa5	0.26265445
31	0x3e068bc4	0.13139254
32	0xbecc8377	-0.3994405
33	0x3ff939f0	1.9470806
34	0x3fc2e64a	1.5226529
35	0x3fc2e07d	1.5224758
36	0x3da453bc	0.080237836
37	0xc063a5bc	-3.5569906
38	0x3e2d1f6e	0.1690652
39	0x3f9b82b0	1.2149258
40	0x3f96477f	1.1740569
41	0x400adbad	2.169658
42	0xbf766df2	-0.96261513
43	0x3f8c81a4	1.0977063
44	0x400cb265	2.1983883
45	0xbef627aa	-0.48077136
46	0x3e06f026	0.13177547
47	0x3f811597	1.0084714
48	0x3d9d29a9	0.07673962
49	0x3efa0fa0	0.48840046
50	0x400bf42f	2.1867788
51	0x3fa5d694	1.2956109
52	0xbf17b774	-0.592643
53	0x3ff8b2c6	1.9429557
54	0x3fbbe6d1	1.4679815
55	0x400984c2	2.148728
56	0x3f223948	0.63368654
57	0x3e5bc503	0.21461873
58	0x4013d1b0	2.3096733
59	0x3fa891fc	1.3169551
60	0xbf780968	-0.9688935
61	0x3dc3bd61	0.095576055
62	0x3ff26c2c	1.8939261
63	0x402594c5	2.5872052
64	0x4015c5f3	2.3402069
65	0x3f3aca21	0.72964674
66	0xbf71ab69	-0.94402176
67	0xbef2ee9a	-0.47447664
68	0x4024bb51	2.573933
69	0x4022df15	2.5448658
70	0x3f412837	0.7545199
71	0x3fa32df1	1.2748395
72	0x400bee70	2.186428
73	0xbf76ab1b	-0.96354836
74	0xbecb92c9	-0.39760426
75	0x3f13a1ed	0.57668954
76	0x400a187e	2.157745
77	0xbeb8d02d	-0.36096326
78	0xbf5af420	-0.85528755
79	0xbf77846e	-0.96686447
80	0xbea2d90d	-0.31806222
81	0x3f5e20e1	0.8676892
82	0x3e8325e9	0.2561486
83	0xc0066c07	-2.1003435
84	0x3e676bf9	0.22599782
85	0xbe44c44d	-0.19215508
86	0x3f8bb67f	1.0915068
87	0x3f69fd88	0.91402483
88	0x3f862b94	1.0482049
89	0x402626c3	2.5961158
90	0xbf78956f	-0.9710302
91	0xbef0ecf3	-0.47055778
92	0x3e9e950e	0.30973095
93	0xbec19380	-0.37807846
94	0x400a40dc	2.1602087
95	0x400c63ba	2.1935868
96	0xc05c6e67	-3.4442384
97	0x3e3048be	0.17215249
98	0x3f858294	1.0430474
99	0x3e776f1b	0.24163477
100	0x400af2b3	2.1710632
101	0xbef18765	-0.4717361
102	0x3cbc99ea	0.02302261
103	0x3fc4394a	1.5329983
104	0x3da68d86	0.08132462
105	0xbf76a9dd	-0.9635294
106	0x40475de3	3.1151054
107	0xbf1eb341	-0.6199227
108	0x400af7ef	2.1713827
109	0xbf77e4a0	-0.9683323
110	0x3f5f820d	0.87307817
111	0xbea45f17	-0.32103798
112	0x3d8adb48	0.06780106
113	0x3f879b44	1.0594258
114	0x3f4e6ad6	0.8063177
115	0x3f93db7c	1.1551356
116	0x4008c6f2	2.1371427
117	0x3f7d80e7	0.99024814
118	0x3f6ad5e5	0.9173263
119	0x3fa58cef	1.2933635
120	0x4005cef7	2.0907571
121	0x3f8f2ea0	1.1186104
122	0xbf579666	-0.84213865
123	0x3f3f7ab8	0.7479663
124	0xbf774f48	-0.9660535
125	0x3e103dcf	0.14086078
126	0xbf775099	-0.9660736
127	0x400aa7e4	2.1664972
128	0x3f8aed50	1.0853672
129	0x400ea298	2.228674
130	0x3fd07133	1.6284546
131	0x3f94ad34	1.1615357
132	0x3e54ffc3	0.2080069
133	0x3ffc05f3	1.9689316
134	0x3f9be082	1.2177889
135	0x4022f471	2.5461695
136	0x4022bf6d	2.5429337
137	0xbec2ce2a	-0.38047916
138	0x3fd6c08d	1.6777512
139	0xbf789867	-0.9710755
140	0x3f32bc01	0.6981812
141	0xbec2928f	-0.3800244
142	0x3f7aa679	0.9791027
143	0xbeaaa111	-0.3332601
144	0x3ff77301	1.9331971
145	0x3e566412	0.20936611
146	0x3e95f9db	0.29292187
147	0xbed726fa	-0.42021924
148	0x40120881	2.281769
149	0x3e161ede	0.14660212
150	0x3ec65c8e	0.3874249
151	0x3f1bd98f	0.60878843
152	0x3fa852e6	1.3150299
153	0x3fee2734	1.8605714
154	0x3f8a150f	1.0787677
155	0x3f90fc24	1.1326947
156	0xbf771b55	-0.9652608
157	0x3e6695f8	0.22518146
158	0x3faa3187	1.3296365
159	0x400c6921	2.1939166
160	0xbf1b7267	-0.6072144
161	0x3d75d493	0.06001718
162	0x400db8bd	2.2144005
163	0x3faa3a80	1.3299103
164	0x3f82b627	1.0211838
165	0x3e04a360	0.12952948
166	0xbf7b6aff	-0.9821014
167	0x4000ee1a	2.0145326
168	0x400ea519	2.2288268
169	0x40223c0e	2.5349154
170	0x3fdc23a3	1.7198375
171	0x3fa6698d	1.3000962
172	0x3ebfdbb8	0.3747232
173	0xbf76631f	-0.96244997
174	0x3f58f1e7	0.84744114
175	0x3fd5e747	1.6711205
176	0x40113a90	2.2691994
177	0x401caf5c	2.448203
178	0x3e9ee6c8	0.31035447
179	0x3e765429	0.24055542
180	0x4084d4c5	4.150973
181	0x4014a0c5	2.3223126
182	0x405c08ac	3.4380293
183	0x3fb90582	1.4454806
184	0x3eadd98e	0.33955044
185	0x3fc61c1c	1.5477328
186	0x3fa48a1f	1.2854651
187	0x3f3c2998	0.7350097
188	0x3f732dd2	0.9499179
189	0x3f166610	0.58749485
190	0x3ea86096	0.3288619
191	0xbef46fbb	-0.47741494
192	0x3fbd1243	1.4771198
193	0x3f5a81cb	0.853543
194	0x3f39498d	0.72377855
195	0x3fa587fd	1.2932125
196	0x3fa4a9bc	1.2864299
197	0x3f7e7849	0.9940229
198	0x3fbd569f	1.479206
199	0x3f63ab1f	0.88932985
200	0xbf772aa7	-0.9654946
201	0x3da33d2d	0.07970653
202	0x3f576caf	0.84150213
203	0xba896e3a	-0.0010485121
204	0xbefc2521	-0.49247077
205	0x3e13f645	0.14449413
206	0xbe367ea7	-0.17821752
207	0x3f83151b	1.0240816
208	0xbf94653c	-1.1593394
209	0x3e54f04e	0.20794794
210	0x3cc7f2a2	0.024407689
211	0x3d156d90	0.03648144
212	0x3f128a91	0.57242686
213	0xbf006962	-0.501608
214	0x3ecefa84	0.40425503
215	0x3c9a2c18	0.018819854
216	0x3fa8df3a	1.3193123
217	0x3fcd9a8d	1.606279
218	0xbe414876	-0.18875298
219	0x3fa6c9c0	1.3030319
220	0xbe6e51e4	-0.23273426
221	0xbede7756	-0.4345042
222	0x3f8a9723	1.0827373
223	0x407194d8	3.7747097
224	0x3fcd0d87	1.6019753
225	0x3d9a8ddd	0.075465895
226	0x3f8a2101	1.0791322
227	0xbf786a05	-0.9703677
228	0x3f68120b	0.9065253
229	0x3f69764b	0.91196126
230	0x3f8eaa79	1.1145774
231	0x3ff9ae52	1.9506323
232	0xbf731a31	-0.9496184
233	0xbf5b0825	-0.855593
234	0x3f562612	0.8365184
235	0xbf7625c4	-0.96151376
236	0x3dfbb56a	0.12290461
237	0xbf59e652	-0.85117066
238	0x3e0b76b1	0.13619496
239	0x3f5107a4	0.81652284
240	0x3de229a7	0.11043101
241	0x40836b22	4.1068277
242	0x3ec2f2ff	0.38076016
243	0x3fa5e2b4	1.2959809
244	0x3fa7c21a	1.310611
245	0x4014c1bb	2.3243244
246	0x3fa48988	1.2854471
247	0x40092d6a	2.1433969
248	0xbe2e0b3b	-0.16996472
249	0x3f272f32	0.6530639
250	0x400ad8b8	2.1694775
251	0x40145f23	2.3183067
252	0x3f3c5d63	0.73579997
253	0x3ff45eb8	1.9091406
254	0x3f4fb56a	0.8113619
255	0x3ea5329b	0.3226517

l1.bias f4 [8]
0	0x3f56bcb6	0.838817
1	0x3eeb5001	0.45959476
2	0x3f575b4f	0.841237
3	0x3f2ca58b	0.674401
4	0x3f9007e6	1.125241
5	0x3f27d38f	0.6555719
6	0x3edba277	0.42897388
7	0x3f5d3197	0.86403793

l2.weight f4 [8, 8]
0	0x3e80f988	0.25190377
1	0x3e46e381	0.19422723
2	0xbe955965	-0.29169765
3	0xbe9e6c6c	-0.30942094
4	0xbeae73f3	-0.34072837
5	0xbe767bc9	-0.24070658
6	0xbeb3cc67	-0.35116884
7	0xbde2b389	-0.110694
8	0x3f9688cf	1.1760501
9	0x40032aae	2.04948
10	0xbf7f85b5	-0.99813396
11	0xbfa61b2e	-1.2977045
12	0x3f25a60f	0.6470651
13	0x404b2e60	3.1747055
14	0x3fd907b3	1.6955475
15	0xbf340eee	-0.7033528
16	0xbd918413	-0.07105269
17	0x3e0152c3	0.12629227
18	0x3c19ee4f	0.009395196
19	0x3ec8fb19	0.39254072
20	0x3ef8b6fe	0.48577112
21	0xbfa13a44	-1.2595906
22	0x3ecd60b4	0.4011284
23	0xbf1b62e3	-0.60697764
24	0x4003eca0	2.0613174
25	0x3f63b08a	0.8894125
26	0x401512ac	2.3292646
27	0xbea0cb27	-0.31404993
28	0x3f98ecaa	1.1947224
29	0xbf387f61	-0.72069365
30	0x3ff3b91b	1.9040865
31	0xc05351c2	-3.301865
32	0xbe395ed7	-0.18102585
33	0xbe04fb6f	-0.1298654
34	0xbe0c0e72	-0.13677385
35	0xbe91e8b3	-0.28497848
36	0xbc4aad60	-0.012370437
37	0xbe4e8e8f	-0.2017157
38	0xbd9c0368	-0.07617837
39	0xbd402c10	-0.04691702
40	0xbdcc56c4	-0.09977487
41	0xbe9abb13	-0.3022085
42	0x3def06b9	0.11671204
43	0x3eaf60ae	0.34253448
44	0x3f1ca9f9	0.6119686
45	0xbd6d2c0b	-0.05790333
46	0xbecd06f3	-0.40044364
47	0xbe3aee15	-0.18254884
48	0xbfdd9ecd	-1.7314087
49	0x3f817f36	1.0116947
50	0x40164e50	2.3485298
51	0xbfdadb13	-1.7098106
52	0x3fef62b7	1.8702
53	0x3f2869e0	0.6578655
54	0x3edf35ed	0.4359583
55	0x3fae12ed	1.3599526
56	0x3fdfc642	1.7482378
57	0xbfbfe03b	-1.4990305
58	0x3f938baa	1.1526997
59	0x406a3498	3.65946
60	0x3fe2bddd	1.7714192
61	0xbfbf53d4	-1.4947457
62	0xbfd2d9c0	-1.6472702
63	0x40291571	2.6419337

l2.bias f4 [8]
0	0xbeb42599	-0.35184935
1	0x3f53a779	0.8267742
2	0xbf011640	-0.50424576
3	0x3e2eb4fe	0.1706123
4	0xbd947c7c	-0.07250306
5	0xbeb50e09	-0.3536227
6	0x3eb42cfa	0.35190564
7	0x3f2d9dfc	0.6781919

l3.weight f4 [22, 8]
0	0x3e053509	0.13008513
1	0xc117738e	-9.465712
2	0xc0873455	-4.225138
3	0xc1030ce3	-8.190646
4	0x3e3833da	0.1798853
5	0xc0d5747b	-6.670469
6	0x3ff6cfbe	1.9282148
7	0xbf831abb	-1.0242532
8	0xbe0ffbe3	-0.14060931
9	0xc10e5242	-8.895082
10	0x404a5e02	3.1619878
11	0xc03dcb90	-2.9655495
12	0xbe6d5996	-0.23178706
13	0x3faa8f6a	1.3325016
14	0xc094e84e	-4.6533575
15	0x3ea77291	0.32704595
16	0xbe9e9087	-0.3096964
17	0x3f93c0ee	1.1543252
18	0xbf1a685d	-0.60315496
19	0x3eaad803	0.3336793
20	0x3e1cf99a	0.1532959
21	0xc0130a9f	-2.2975233
22	0xbf4ed73d	-0.8079718
23	0xc0d0569d	-6.510573
24	0x3d541255	0.051775295
25	0xc006bc6d	-2.1052506
26	0xc0b721fa	-5.7228975
27	0xc09f2e73	-4.97442
28	0x3e91a897	0.28448936
29	0xc09d10c9	-4.908299
30	0xc155de37	-13.366752
31	0x3f1422a1	0.5786534
32	0x3e9da738	0.3079164
33	0x3f13b85b	0.5770318
34	0xc07cad60	-3.948082
35	0xbc1aa3ab	-0.009438436
36	0x3e5f8842	0.21829322
37	0xc10c014d	-8.750318
38	0x3f53d5de	0.8274821
39	0xc0410d1f	-3.0164258
40	0xbe56feed	-0.20995684
41	0xc0f2b5ed	-7.5847077
42	0xc05b9710	-3.4310951
43	0x3f4c5afd	0.7982634
44	0xbd5a9538	-0.053364962
45	0xc05aaccc	-3.4167967
46	0xc13681e7	-11.406714
47	0x3f14c082	0.58106244
48	0x3d597b98	0.053096384
49	0xbdf3c1ec	-0.11902222
50	0xbf5ad48e	-0.8548058
51	0xbb95b2f3	-0.0045684515
52	0xbe4d51d5	-0.20050748
53	0xbdd094af	-0.10184609
54	0x3f366eb6	0.7126268
55	0xbfa25b8a	-1.2684186
56	0x3e2fed08	0.17180264
57	0xc089673e	-4.293853
58	0x40718d68	3.7742558
59	0xc1078888	-8.470833
60	0x3e9e96c5	0.30974403
61	0x406a0e95	3.65714
62	0x3fe06731	1.7531492
63	0xbfca6e53	-1.5814918
64	0xbe612a70	-0.21988845
65	0x3eecb52c	0.46231973
66	0xc03c40b5	-2.9414494
67	0x3e7c8ea2	0.24663785
68	0x3e89ba4d	0.2689995
69	0xbddbf3b8	-0.10739845
70	0xbf36bf0f	-0.7138528
71	0xbf43d7c1	-0.7650109
72	0x3eb42a7c	0.35188663
73	0xc0f90bf2	-7.782708
74	0xc0b9c911	-5.8057942
75	0xc11cb81e	-9.7949505
76	0x3db42a94	0.08797184
77	0xc0f9c09d	-7.8047624
78	0xc07d3f4c	-3.9569883
79	0x3f4b68f0	0.79456997
80	0x3d9eb326	0.077490136
81	0xc0edd23f	-7.431915
82	0xc0938f98	-4.6112785
83	0x3fe245e9	1.7677585
84	0xbd3a6828	-0.045509487
85	0xc05d730d	-3.4601471
86	0xc03401a4	-2.8126001
87	0x3d6ffa3e	0.05858826
88	0x3e807503	0.25089273
89	0xbf0bef48	-0.5466199
90	0x4034d722	2.8256307
91	0x3f735530	0.9505186
92	0x3e0549ec	0.1301648
93	0xbeb4fd11	-0.35349324
94	0xbf34b3b2	-0.70586693
95	0xbf3c3bd0	-0.73528767
96	0xbd18fe75	-0.037352044
97	0xc109e4c2	-8.618349
98	0xbe9564b5	-0.29178396
99	0xc0f7865c	-7.7351513
100	0xbe7ab37f	-0.24482535
101	0xbed8d8b4	-0.4235283
102	0xc12540a6	-10.328283
103	0x3f24a75f	0.6431789
104	0xbdb2a838	-0.087234914
105	0x3e1f6007	0.15563975
106	0xbfc3f3db	-1.5308794
107	0x3f811c17	1.0086697
108	0x3e7d6802	0.24746707
109	0xc0c9f59d	-6.311232
110	0x3eb6992d	0.3566374
111	0xc013b1ca	-2.3077264
112	0x3ea33278	0.31874442
113	0xc12550ce	-10.332228
114	0x400d1641	2.2044833
115	0xbf016c1c	-0.50555587
116	0x3d27ba50	0.040949166
117	0x3e8d8159	0.27637747
118	0x3dae447b	0.08509155
119	0xbf248133	-0.6425964
120	0xbe8a89f0	-0.27058363
121	0xbfbbf183	-1.4683079
122	0x406186fa	3.5238633
123	0xc12fea58	-10.994713
124	0xbe0dbcf6	-0.13841614
125	0x4085934e	4.1742315
126	0xc0e8a0c4	-7.2696247
127	0xbd8eac5d	-0.069664694
128	0xbe5dfe90	-0.21679139
129	0xbe963aab	-0.29341635
130	0x3e1e85bb	0.15480702
131	0xc1444264	-12.266209
132	0xbeb1141a	-0.3458565
133	0xc0ecc19a	-7.398633
134	0x4007b1e5	2.1202328
135	0xc01d965f	-2.462303
136	0xbb4fa16f	-0.0031681915
137	0xc139e064	-11.617283
138	0x4005501a	2.083014
139	0x400fad99	2.2449706
140	0xbddde560	-0.108347654
141	0x40040b24	2.06318
142	0x3d9a9f12	0.075498715
143	0xc02f02a4	-2.7345362
144	0x3e48e116	0.19617113
145	0xc0d761cf	-6.7306895
146	0x401eac3c	2.4792624
147	0xc1674c35	-14.456105
148	0xbbf01440	-0.0073266327
149	0x3fd58c64	1.6683469
150	0xbf906429	-1.1280566
151	0x3d97f417	0.07419603
152	0x3e448805	0.19192512
153	0xc08123ba	-4.035611
154	0xbf9aec6e	-1.2103403
155	0x4026d5ff	2.6068113
156	0xbea4eeea	-0.32213527
157	0xbf39b2a4	-0.7253821
158	0xc11fc30c	-9.985119
159	0xbf06fac5	-0.52726394
160	0xbe89c0cb	-0.26904902
161	0xbebda3a5	-0.37038913
162	0xc01ff123	-2.4990928
163	0xc0e05e18	-7.011486
164	0x3e9b2783	0.30303583
165	0x40262019	2.595709
166	0xbae29980	-0.0017288178
167	0xbeb7e8f9	-0.35919932
168	0x3e7e3e46	0.24828443
169	0x3ff0a70e	1.8800981
170	0xc075a024	-3.8378992
171	0xc0e6a70c	-7.2078915
172	0x3de8cb2c	0.11366877
173	0xc0844226	-4.1330748
174	0xc0f132a3	-7.5374312
175	0xc04a0e31	-3.1571162

l3.bias f4 [22]
0	0xbf3cc715	-0.73741275
1	0xc06231f3	-3.5342987
2	0x3b1898cc	0.0023284433
3	0xbf7e686a	-0.99378073
4	0x3f37be74	0.71774983
5	0x3f820216	1.0156887
6	0xbf0bfd03	-0.5468294
7	0xc07edccb	-3.9822261
8	0x3b495f1a	0.003072685
9	0x3fd280a9	1.6445514
10	0xc005b1f8	-2.0889874
11	0xbe83e916	-0.25763768
12	0xc067f02b	-3.6240337
13	0xbf94e086	-1.1631019
14	0xc057a6d9	-3.3695586
15	0xc068075f	-3.62545
16	0xc02ab942	-2.6675572
17	0xbfa29bb4	-1.2703767
18	0xbfe99e95	-1.825152
19	0xbee59929	-0.44843414
20	0x3ec2074a	0.37896186
21	0x3e63233e	0.22181413
